…
ed experiments are shown in the table below. The default tanh and linear activation functions of recurrent neural networks are used between layers, and Dropout is added to prevent overfitting. The dropout rate is set to 0.2. The number of neurons in each recurrent layer of LSTM and GRU is 50, and the number of neurons in the recurrent layer of BiLSTM is 100. Each model of LSTM, GRU, and BiLSTM adopts four layers of LSTM, GRU, BiLSTM, and one fully connected layer, with a Dropout set between each network layer.\n3.3.1 LSTM Network Structure for IBM Layer(type) Output Shape Param# lstm_1 (LSTM) (None, 60, 50) 11400 dropout_1 (Dropout) (None, 60, 50) 0 lstm_2 (LSTM) (None, 60, 50) 20200 dropout_2 (Dropout) (None, 60, 50) 0 lstm_3 (LSTM) (None, 60, 50) 20200 dropout_3 (Dropout) (None, 60, 50) 0 lstm_4 (LSTM) (None, 50) 20200 dropout_4 (Dropout) (None, 50) 0 dense_1 (Dense) (None, 1) 51 Total params: 72,051\nTrainable params: 72,051\nNon-trainable params: 0\n3.3.2 GRU Network Structure for IBM Layer(type) Output Shape Param# gru_1 (GRU) (None, 60, 50) 8550 dropout_1 (Dropout) (None, 60, 50) 0 gru_2 (GRU) (None, 60, 50) 15150 dropout_2 (Dropout) (None, 60, 50) 0 gru_3 (GRU) (None, 60, 50) 15150 dropout_3 (Dropout) (None, 60, 50) 0 gru_4 (GRU) (None, 50) 15150 dropout_4 (Dropout) (None, 50) 0 dense_1 (Dense) (None, 1) 51 Total params: 54,051\nTrainable params: 54,051\nNon-trainable params: 0\n3.3.3 BiLSTM Network Structure for IBM Layer(type) Output Shape Param# bidirectional_1 (Bidirection) (None, 60, 100) 22800 dropout_1 (Dropout) (None, 60, 100) 0 bidirectional_2 (Bidirection) (None, 60, 100) 60400 dropout_2 (Dropout) (None, 60, 100) 0 bidirectional_3 (Bidirection) (None, 60, 100) 60400 dropout_3 (Dropout) (None, 60, 100) 0 bidirectional_4 (Bidirection) (None, 100) 60400 dropout_4 (Dropout) (None, 100) 0 dense_1 (Dense) (None, 1) 101 Total params: 204,101\nTrainable params: 204,101\nNon-trainable params: 0\n3.4 Model Compilation and Hyperparameter Settings In this paper, after continuous hyperparameter tuning with the goal of minimizing the loss function on the validation set, the following hyperparameters are selected for the three models of SPD Bank: epochs=100, batch_size=32; and for the three models of IBM: epochs=50, bat
…
4.5.1. The default tanh and linear activation functions of recurrent neural networks are used between layers. Dropout is added to prevent overfitting, but if Dropout uses an excessively large dropout rate, underfitting will occur. Therefore, the dropout rate of Dropout is set to 0.01. The number of neurons in the BiLSTM recurrent layer of the final model is 100. A BiLSTM layer and three fully connected layers are used, and a Dropout is set between the BiLSTM layer and the first fully connected layer.\n4.5.1 BiLSTM Network Structure Layer(type) Output Shape Param# bidirectional_1 (Bidirection) (None, 100) 24400 dropout_1 (Dropout) (None, 100) 0 dense_1 (Dense) (None, 256) 25856 dropout_2 (Dropout) (None, 256) 0 dense_2 (Dense) (None, 64) 16448 dense_3 (Dense) (None, 1) 0 Total params: 66,769\nTrainable params: 66,769\nNon-trainable params: 0\nBecause the amount of data used in this experiment is large, epochs=400 and batch_size=1024 are selected. The loss function of the model is Mean Squared Error (MSE). The optimizer used is Stochastic Gradient Descent (SGD). Stochastic gradient descent has three advantages over gradient descent (GD): it can more effectively us
…
