…
, the network structures set for each model are as shown in the table below. Between layers, the default tanh and linear activation functions for recurrent neural networks are used, and Dropout with a dropout rate of 0.2 is added to prevent overfitting. Each recurrent layer in LSTM and GRU models has 50 neurons, while the BiLSTM recurrent layers have 100 neurons. Each LSTM, GRU, and BiLSTM model comprises four recurrent layers and one fully connected layer, with a Dropout layer between each network layer.\nTable 3.3: LSTM Network Structure for IBM Layer(type) Output Shape Param# lstm_1 (LSTM) (None, 60, 50) 11,400 dropout_1 (Dropout) (None, 60, 50) 0 lstm_2 (LSTM) (None, 60, 50) 20,200 dropout_2 (Dropout) (None, 60, 50) 0 lstm_3 (LSTM) (None, 60, 50) 20,200 dropout_3 (Dropout) (None, 60, 50) 0 lstm_4 (LSTM) (None, 50) 20,200 dropout_4 (Dropout) (None, 50) 0 dense_1 (Dense) (None, 1) 51 Total params: 72,051\nTrainable params: 72,051\nNon-trainable params: 0\nTable 3.4: GRU Network Structure for IBM Layer(type) Output Shape Param# gru_1 (GRU) (None, 60, 50) 8,550 dropout_1 (Dropout) (None, 60, 50) 0 gru_2 (GRU) (None, 60, 50) 15,150 dropout_2 (Dropout) (None, 60, 50) 0 gru_3 (GRU) (None, 60, 50) 15,150 dropout_3 (Dropout) (None, 60, 50) 0 gru_4 (GRU) (None, 50) 15,150 dropout_4 (Dropout) (None, 50) 0 dense_1 (Dense) (None, 1) 51 Total params: 54,051\nTrainable params: 54,051\nNon-trainable params: 0\nTable 3.5: BiLSTM Network Structure for IBM Layer(type) Output Shape Param# bidirectional_1 (Bidirectional) (None, 100) 22,400 dropout_1 (Dropout) (None, 100) 0 dense_1 (Dense) (None, 256) 25,856 dropout_2 (Dropout) (None, 256) 0 dense_2 (Dense) (None, 64) 16,448 dense_3 (Dense) (None, 1) 0 Total params: 66,769\nTrainable params: 66,769\nNon-trainable params: 0\n3.4 Model Compilation and Hyperparameter Settings After iterative tuning of hyperparameters aiming to minimize the loss function on the validation set, the following settings are chosen for the three models for Pudong Bank and IBM respectively: epochs=100, batch_size=32 for Pudong Bank models and epochs=50, batch_size=32 for
…
ture is set as shown in Table 4.10 and Fig. 12. Between layers, the default tanh and linear activation functions for recurrent neural networks are used. To prevent overfitting, Dropout with a dropout rate of 0.01 is added. However, if the dropout rate is too high, it can lead to underfitting. The BiLSTM recurrent layer has 100 neurons, and the network comprises one BiLSTM layer and three fully connected layers, with a Dropout layer between the BiLSTM layer and the first fully connected layer.\nTable 4.10: BiLSTM Network Structure Layer(type) Output Shape Param# bidirectional_1 (Bidirectional) (None, 100) 22,400 dropout_1 (Dropout) (None, 100) 0 dense_1 (Dense) (None, 256) 25,856 dropout_2 (Dropout) (None, 256) 0 dense_2 (Dense) (None, 64) 16,448 dense_3 (Dense) (None, 1) 0 Total params: 66,769\nTrainable params: 66,769\nNon-trainable params: 0\nDue to the large volume of training data in this experiment, epochs=400 and batch_size=1024 are selected for the BiLSTM model. The loss function used is Mean Squared Error (MSE), and the optimizer chosen is Stochastic Gradient Descent (SGD). Compared to Gradient Descent (GD), SGD has the advantages of more effectively utiliz
…
