…
都为 60，每个时间步输入特征个数分别为 5 和 6。这样可以输入前 60 个交易日的数据，预测出第 61 天的收盘价。使我们的数据集符合之后要比较的三种神经网络模型输入的要求，依次是送入样本数，循环核时间展开步数和每个时间步输入特征个数。之后我们再将浦发银行的数据集按照 2488：311：255 的比例将归一化的数据集划分为训练集，验证集，测试集三个部分。将 IBM 的数据集按照 6550：364：304 的比例将归一化的数据集划分为训练集，验证集，测试集三个部分。我们这里划分出验证集的目的是为了方便进行调整模型的超参数以便优化各个模型之后再进行比较。\n3.3 模型网络结构 本文通过大量反复试验最终各个模型设置的网络结构如下表所示，其中层与层之间使用循环神经网络默认的 tanh 和 linear 作为激活函数，并且为了防止过拟合加入 Dropout，Dropout 的丢弃比例（rate）取值为 0.2。LSTM 和 GRU 每个循环层的神经元个数为 50，BiLSTM 循环层的神经元的个数为 100。LSTM、GRU、BiLSTM 每个模型分别采用四层 LSTM、GRU、BiLSTM 和一层全连接层，其中每层网络之间都设置了一个 Dropout。\n表 3.3 IBM的LSTM网络结构 Layer(type) Output Shape Param# lstm_1 (LSTM) (None, 60, 50) 11400 dropout_1 (Dropout) (None, 60, 50) 0 lstm_2 (LSTM) (None, 60, 50) 20200 dropout_2 (Dropout) (None, 60, 50) 0 lstm_3 (LSTM) (None, 60, 50) 20200 dropout_3 (Dropout) (None, 60, 50) 0 lstm_4 (LSTM) (None, 50) 20200 dropout_4 (Dropout) (None, 50) 0 dense_1 (Dense) (None, 1) 51 Total params：72,051\nTrainable params：72,051\nNon-trainable params：0\n表 3.4 IBM的GRU网络结构 Layer(type) Output Shape Param# gru_1 (GRU) (None, 60, 50) 8550 dropout_1 (Dropout) (None, 60, 50) 0 gru_2 (GRU) (None, 60, 50) 15150 dropout_2 (Dropout) (None, 60, 50) 0 gru_3 (GRU) (None, 60, 50) 15150 dropout_3 (Dropout) (None, 60, 50) 0 gru_4 (GRU) (None, 50) 15150 dropout_4 (Dropout) (None, 50) 0 dense_1 (Dense) (None, 1) 51 Total params：54,051\nTrainable params：54,051\nNon-trainable params：0\n表 3.5 IBM的BiLSTM网络结构 Layer(type) Output Shape Param# bidirectional_1 (Bidirection) (None, 60, 100) 22800 dropout_1 (Dropout) (None, 60, 100) 0 bidirectional_2 (Bidirection) (None, 60, 100) 60400 dropout_2 (Dropout) (None, 60, 100) 0 bidirectional_3 (Bidirection) (None, 60, 100) 60400 dropout_3 (Dropout) (None, 60, 100) 0 bidirectional_4 (Bidirection) (None, 100) 60400 dropout_4 (Dropout) (None, 100) 0 dense_1 (Dense) (None, 1) 101 Total params：204,101\nTrainable params：204,101\nNon-trainable params：0\n3.4 模型和编译及超参数设置 本文模型在以验证集的损失函数最小为目标，进行不断的超参数调试之后，对于浦发银行的三个模型都选用 epochs=100，batch_size=32；对于 IBM 的三个模型都选用 epochs=50，batch_size=32。其中优化器都采用自适应矩估计（Adaptive moment estimation，Adam）$^{[19]}$。使用其 keras 包中的默认值，即 lr=0.001、beta_1=0.9、beta_2=0.999、epsilon=1e-08 和 decay=0.0。损失函数采用均方误差（Mean Square Error，MSE）。\n参数解释：\nlr：学习率 beta_1：一阶矩估计的
…
\u0026#39;) h[\u0026#39;data\u0026#39;] = feature_info h.close() self.get_env().add_data(feature_info, Feature_Info) pass 通过上述流程，利用 LightGBM 高效地筛选出对预测未来收益率最具影响力的因子，从而提升模型的预测能力和解释性。\n4.5 基于 BiLSTM 的因子组合 本小节使用 BiLSTM 进行因子组合。BiLSTM 的具体原理在第二章已经介绍了，这里不再赘述。下面先介绍一下使用模型的具体网络结构，本文通过大量反复试验最终 BiLSTM 设置的网络结构如表4.10和 Fig. 12 所示。其中层与层之间使用循环神经网络默认的 tanh 和 linear 作为激活函数。并且为了防止过拟合加入 Dropout，但是如果 Dropout 使用过大的丢弃比例会出现欠拟合的现象，因此 Dropout 的丢弃比例取值为 0.01。最终模型的 BiLSTM 循环层的神经元个数为 100，采用一层 BiLSTM 层和三层全连接层，其中 BiLSTM 层和第一个全连接层之间设置了一个 Dropout。\n表 4.10 BiLSTM的网络结构 Layer(type) Output Shape Param# bidirectional_1 (Bidirection) (None, 100) 24400 dropout_1 (Dropout) (None, 100) 0 dense_1 (Dense) (None, 256) 25856 dropout_2 (Dropout) (None, 256) 0 dense_2 (Dense) (None, 64) 16448 dense_3 (Dense) (None, 1) 0 Total params：66,769\nTrainable params：66,769\nNon-trainable params：0\n因为本次实验使用数据的数据量较大，因此选用 epochs=400，batch_size=1024。模型的损失函数采用均方误差（Mean Square Error，MSE）。其中优化器采用随机梯度下降（Stochastic Gradient Descent，SGD）。随机梯度下降相对于梯度下降（Gradient Descent，GD）有在信息冗余的情况下更能有效地利用信息，前期迭代效果卓越，适合处理大样本的数据这三个优势 $^{[23]}$。由于本实验训练数据量较大，使用 SGD 的话每次仅用一个样本来迭代，训练的速度很快，可以大大减少我们训练所花费的时间。使用其 keras 包中的默认值，即 lr=0.01、momentum=0.0、decay=0.
…
